pkg/mlai/onnx/testdata/sum_and_difference.onnx (onnx, 1104 bytes, 4 tensors)

conv.weight f4 [4, 1, 4]
000000 c2 6e b6 be fc 70 b7 3e c9 b4 f7 3d eb dc d2 3c
       -0.35631377 0.35828388 0.12095029 0.025740108
000010 5b 9a 1f 3f 98 10 9f 3e 54 91 b8 3e 29 bd 89 3e
       0.623449 0.31067348 0.36048377 0.2690213
000020 19 91 94 3e 1e f7 f8 3e 7a eb 26 3f 8e 7d 0f 3f
       0.2901695 0.48626035 0.6520306 0.56050956
000030 e3 6e b2 3e e3 46 0a 3f ab 15 f5 3d d7 64 f4 ba
       0.34850225 0.54014415 0.119670235 -0.0018645775

conv.bias f4 [4]
000000 95 b4 76 3e 54 31 bf bd 82 2b 09 3e a0 31 a8 3e
       0.24092324 -0.093355805 0.13395503 0.3285036

fc.weight f4 [2, 8]
000000 da 38 9a be f2 c5 1a 3f d8 5a f3 3e 08 8a cc 3e
       -0.301215 0.6045829 0.47530246 0.3994906
000010 b0 68 74 3e 96 47 f2 3e 90 e8 eb 3e ad 54 14 3f
       0.2386806 0.4732024 0.4607587 0.57941705
000020 f4 c4 22 3e 90 e0 39 bc bc 78 cc bd 6b e9 46 3e
       0.15895444 -0.011345044 -0.09983966 0.1942498
000030 82 de 59 3d fc fe 98 bd 90 94 52 3d 80 73 9f 3d
       0.053190716 -0.074705094 0.05141121 0.07785702

fc.bias f4 [2]
000000 a0 f3 86 bd 0b b8 ee 3e
       -0.065894365 0.4662479
